…
`Trainer(limit_val_batches=1.0)` was configured so 100% of the batches will be used..
[2023-07-15 21:31:55,987][root][INFO] - Loading cached dataset...
Vocab size: 33278
NOTE: no dropout inside recurrent cell
NOTE: no dropout inside recurrent cell
NOTE: no dropout inside recurrent cell
NOTE: no dropout inside recurrent cell
NOTE: no dropout inside recurrent cell
NOTE: no dropout inside recurrent cell
vocabulary: 33278
SequenceLightningModule(
  (model): SequenceModel(
    (drop): Identity()
    (layers): ModuleList(
      (0): SequenceResidualBlock(
        (layer): RNN(
          (cell): RNNCell(
            (W_hx): Linear(in_features=384, out_features=384, bias=False)
            (activate): Tanh()
            (W_hh): Linear(in_features=384, out_features=384, bias=False)
          )
        )
        (residual): Residual()
        (norm): Normalization(
          (norm): BatchNorm1d(384, eps=1e-05, momentum=0.1, affine=True, track_running_stats=True)
        )
        (drop): Dropout1d(p=0.1, inplace=False)
        (output_linear): Sequential(
          (0): Conv1d(384, 768, kernel_size=(1,), stride=(1,))
          (1): GLU(dim=-2)
        )
        (activation): GELU(approximate=none)
      )
      (1): SequenceResidualBlock(
        (layer): RNN(
          (cell): RNNCell(
            (W_hx): Linear(in_features=384, out_features=384, bias=False)
            (activate): Tanh()
            (W_hh): Linear(in_features=384, out_features=384, bias=False)
          )
        )
        (residual): Residual()
        (norm): Normalization(
          (norm): BatchNorm1d(384, eps=1e-05, momentum=0.1, affine=True, track_running_stats=True)
        )
        (drop): Dropout1d(p=0.1, inplace=False)
        (output_linear): Sequential(
          (0): Conv1d(384, 768, kernel_size=(1,), stride=(1,))
          (1): GLU(dim=-2)
        )
        (activation): GELU(approximate=none)
      )
      (2): SequenceResidualBlock(
        (layer): RNN(
          (cell): RNNCell(
            (W_hx): Linear(in_features=384, out_features=384, bias=False)
            (activate): Tanh()
            (W_hh): Linear(in_features=384, out_features=384, bias=False)
          )
        )
        (residual): Residual()
        (norm): Normalization(
          (norm): BatchNorm1d(384, eps=1e-05, momentum=0.1, affine=True, track_running_stats=True)
        )
        (drop): Dropout1d(p=0.1, inplace=False)
        (output_linear): Sequential(
          (0): Conv1d(384, 768, kernel_size=(1,), stride=(1,))
          (1): GLU(dim=-2)
        )
        (activation): GELU(approximate=none)
      )
      (3): SequenceResidualBlock(
        (layer): RNN(
          (cell): RNNCell(
            (W_hx): Linear(in_features=384, out_features=384, bias=False)
            (activate): Tanh()
            (W_hh): Linear(in_features=384, out_features=384, bias=False)
          )
        )
        (residual): Residual()
        (norm): Normalization(
          (norm): BatchNorm1d(384, eps=1e-05, momentum=0.1, affine=True, track_running_stats=True)
        )
        (drop): Dropout1d(p=0.1, inplace=False)
        (output_linear): Sequential(
          (0): Conv1d(384, 768, kernel_size=(1,), stride=(1,))
          (1): GLU(dim=-2)
        )
        (activation): GELU(approximate=none)
      )
      (4): SequenceResidualBlock(
        (layer): RNN(
          (cell): RNNCell(
            (W_hx): Linear(in_features=384, out_features=384, bias=False)
            (activate): Tanh()
            (W_hh): Linear(in_features=384, out_features=384, bias=False)
          )
        )
        (residual): Residual()
        (norm): Normalization(
          (norm): BatchNorm1d(384, eps=1e-05, momentum=0.1, affine=True, track_running_stats=True)
        )
        (drop): Dropout1d(p=0.1, inplace=False)
        (output_linear): Sequential(
          (0): Conv1d(384, 768, kernel_size=(1,), stride=(1,))
          (1): GLU(dim=-2)
        )
        (activation): GELU(approximate=none)
      )
      (5): SequenceResidualBlock(
        (layer): RNN(
          (cell): RNNCell(
            (W_hx): Linear(in_features=384, out_features=384, bias=False)
            (activate): Tanh()
            (W_hh): Linear(in_features=384, out_features=384, bias=False)
          )
        )
        (residual): Residual()
        (norm): Normalization(
          (norm): BatchNorm1d(384, eps=1e-05, momentum=0.1, affine=True, track_running_stats=True)
        )
        (drop): Dropout1d(p=0.1, inplace=False)
        (output_linear): Sequential(
          (0): Conv1d(384, 768, kernel_size=(1,), stride=(1,))
          (1): GLU(dim=-2)
        )
        (activation): GELU(approximate=none)
      )
    )
    (norm): Identity()
  )
  (encoder): AdaptiveEmbedding(
    (0): AdaptiveEmbedding(
      (drop): Identity()
      (emb_layers): ModuleList(
        (0): Embedding(33278, 384)
      )
      (emb_projs): ParameterList()
    )
  )
  (decoder): SequenceDecoder(
    (0): SequenceDecoder(
      (output_transform): Identity()
    )
  )
  (loss): ProjectedAdaptiveLogSoftmax(
    (out_layers_biases): ParameterList(  (0): Parameter containing: [torch.FloatTensor of size 33278])
    (shared_out_projs): ParameterList()
    (out_projs): OptionalParameterList()
    (drop): Dropout(p=0.0, inplace=False)
…
