…
[2023-07-15 19:04:19,656][src.models.sequence.kernels.ssm][INFO] - Constructing S4 (H, N, L) = (128, 32, 512)
vocabulary: 33278
SequenceLightningModule(
  (model): SequenceModel(
    (drop): Identity()
    (layers): ModuleList(
      (0): SequenceResidualBlock(
        (layer): S4Block(
          (layer): FFTConv(
            (activation): GELU(approximate=none)
            (kernel): SSMKernelDPLR()
            (drop): Dropout(p=0.25, inplace=False)
            (drop_kernel): Identity()
          )
          (mult_activation): Identity()
          (drop): Dropout(p=0.25, inplace=False)
          (output_linear): Sequential(
            (0): Linear(in_features=128, out_features=256, bias=True)
            (1): GLU(dim=-1)
          )
        )
        (residual): Residual()
        (norm): Normalization(
          (norm): LayerNorm((128,), eps=1e-05, elementwise_affine=True)
        )
        (pool): DownAvgPool()
        (drop): Dropout1d(p=0.25, inplace=False)
        (output_linear): Sequential(
          (0): Conv1d(128, 256, kernel_size=(1,), stride=(1,))
          (1): GLU(dim=-2)
        )
        (activation): GELU(approximate=none)
      )
      (1): SequenceResidualBlock(
        (layer): S4Block(
          (layer): FFTConv(
            (activation): GELU(approximate=none)
            (kernel): SSMKernelDPLR()
            (drop): Dropout(p=0.25, inplace=False)
            (drop_kernel): Identity()
          )
          (mult_activation): Identity()
          (drop): Dropout(p=0.25, inplace=False)
          (output_linear): Sequential(
            (0): Linear(in_features=128, out_features=256, bias=True)
            (1): GLU(dim=-1)
          )
        )
        (residual): Residual()
        (norm): Normalization(
          (norm): LayerNorm((128,), eps=1e-05, elementwise_affine=True)
        )
        (pool): DownAvgPool()
        (drop): Dropout1d(p=0.25, inplace=False)
        (output_linear): Sequential(
          (0): Conv1d(128, 256, kernel_size=(1,), stride=(1,))
          (1): GLU(dim=-2)
        )
        (activation): GELU(approximate=none)
      )
      (2): SequenceResidualBlock(
        (layer): FFN(
          (ff): Sequential(
            (0): Sequential(
              (0): Linear(in_features=128, out_features=512, bias=True)
              (1): GELU(approximate=none)
            )
            (1): Dropout(p=0.25, inplace=False)
            (2): Linear(in_features=512, out_features=128, bias=True)
          )
        )
        (residual): Residual()
        (norm): Normalization(
          (norm): LayerNorm((128,), eps=1e-05, elementwise_affine=True)
        )
        (pool): DownAvgPool()
        (drop): Dropout1d(p=0.25, inplace=False)
        (output_linear): Sequential(
          (0): Conv1d(128, 256, kernel_size=(1,), stride=(1,))
          (1): GLU(dim=-2)
        )
        (activation): GELU(approximate=none)
      )
      (3): SequenceResidualBlock(
        (layer): S4Block(
          (layer): FFTConv(
            (activation): GELU(approximate=none)
            (kernel): SSMKernelDPLR()
            (drop): Dropout(p=0.25, inplace=False)
            (drop_kernel): Identity()
          )
          (mult_activation): Identity()
          (drop): Dropout(p=0.25, inplace=False)
          (output_linear): Sequential(
            (0): Linear(in_features=128, out_features=256, bias=True)
            (1): GLU(dim=-1)
          )
        )
        (residual): Residual()
        (norm): Normalization(
          (norm): LayerNorm((128,), eps=1e-05, elementwise_affine=True)
        )
        (pool): DownAvgPool()
        (drop): Dropout1d(p=0.25, inplace=False)
        (output_linear): Sequential(
          (0): Conv1d(128, 256, kernel_size=(1,), stride=(1,))
          (1): GLU(dim=-2)
        )
        (activation): GELU(approximate=none)
      )
      (4): SequenceResidualBlock(
        (layer): S4Block(
          (layer): FFTConv(
            (activation): GELU(approximate=none)
            (kernel): SSMKernelDPLR()
            (drop): Dropout(p=0.25, inplace=False)
            (drop_kernel): Identity()
          )
          (mult_activation): Identity()
          (drop): Dropout(p=0.25, inplace=False)
          (output_linear): Sequential(
            (0): Linear(in_features=128, out_features=256, bias=True)
            (1): GLU(dim=-1)
          )
        )
        (residual): Residual()
        (norm): Normalization(
          (norm): LayerNorm((128,), eps=1e-05, elementwise_affine=True)
        )
        (pool): DownAvgPool()
        (drop): Dropout1d(p=0.25, inplace=False)
        (output_linear): Sequential(
          (0): Conv1d(128, 256, kernel_size=(1,), stride=(1,))
          (1): GLU(dim=-2)
        )
        (activation): GELU(approximate=none)
      )
      (5): SequenceResidualBlock(
        (layer): FFN(
          (ff): Sequential(
            (0): Sequential(
              (0): Linear(in_features=128, out_features=512, bias=True)
              (1): GELU(approximate=none)
            )
            (1): Dropout(p=0.25, inplace=False)
            (2): Linear(in_features=512, out_features=128, bias=True)
          )
        )
        (residual): Residual()
        (norm): Normalization(
          (norm): LayerNorm((128,), eps=1e-05, elementwise_affine=True)
        )
        (pool): DownAvgPool()
        (drop): Dropout1d(p=0.25, inplace=False)
        (output_linear): Sequential(
          (0): Conv1d(128, 256, kernel_size=(1,), stride=(1,))
          (1): GLU(dim=-2)
        )
        (activation): GELU(approximate=none)
      )
      (6): SequenceResidualBlock(
        (layer): S4Block(
          (layer): FFTConv(
            (activation): GELU(approximate=none)
            (kernel): SSMKernelDPLR()
            (drop): Dropout(p=0.25, inplace=False)
            (drop_kernel): Identity()
          )
          (mult_activation): Identity()
          (drop): Dropout(p=0.25, inplace=False)
          (output_linear): Sequential(
            (0): Linear(in_features=128, out_features=256, bias=True)
            (1): GLU(dim=-1)
          )
        )
        (residual): Residual()
        (norm): Normalization(
          (norm): LayerNorm((128,), eps=1e-05, elementwise_affine=True)
        )
        (pool): DownAvgPool()
        (drop): Dropout1d(p=0.25, inplace=False)
        (output_linear): Sequential(
          (0): Conv1d(128, 256, kernel_size=(1,), stride=(1,))
          (1): GLU(dim=-2)
        )
        (activation): GELU(approximate=none)
      )
      (7): SequenceResidualBlock(
        (layer): S4Block(
          (layer): FFTConv(
            (activation): GELU(approximate=none)
            (kernel): SSMKernelDPLR()
            (drop): Dropout(p=0.25, inplace=False)
            (drop_kernel): Identity()
          )
          (mult_activation): Identity()
          (drop): Dropout(p=0.25, inplace=False)
          (output_linear): Sequential(
            (0): Linear(in_features=128, out_features=256, bias=True)
            (1): GLU(dim=-1)
          )
        )
        (residual): Residual()
        (norm): Normalization(
          (norm): LayerNorm((128,), eps=1e-05, elementwise_affine=True)
        )
        (pool): DownAvgPool()
        (drop): Dropout1d(p=0.25, inplace=False)
        (output_linear): Sequential(
          (0): Conv1d(128, 256, kernel_size=(1,), stride=(1,))
          (1): GLU(dim=-2)
        )
        (activation): GELU(approximate=none)
      )
      (8): SequenceResidualBlock(
        (layer): FFN(
          (ff): Sequential(
            (0): Sequential(
              (0): Linear(in_features=128, out_features=512, bias=True)
              (1): GELU(approximate=none)
            )
            (1): Dropout(p=0.25, inplace=False)
            (2): Linear(in_features=512, out_features=128, bias=True)
          )
        )
        (residual): Residual()
        (norm): Normalization(
          (norm): LayerNorm((128,), eps=1e-05, elementwise_affine=True)
        )
        (pool): DownAvgPool()
        (drop): Dropout1d(p=0.25, inplace=False)
        (output_linear): Sequential(
          (0): Conv1d(128, 256, kernel_size=(1,), stride=(1,))
          (1): GLU(dim=-2)
        )
        (activation): GELU(approximate=none)
      )
      (9): SequenceResidualBlock(
        (layer): S4Block(
          (layer): FFTConv(
            (activation): GELU(approximate=none)
            (kernel): SSMKernelDPLR()
            (drop): Dropout(p=0.25, inplace=False)
            (drop_kernel): Identity()
          )
          (mult_activation): Identity()
          (drop): Dropout(p=0.25, inplace=False)
          (output_linear): Sequential(
            (0): Linear(in_features=128, out_features=256, bias=True)
            (1): GLU(dim=-1)
          )
        )
        (residual): Residual()
        (norm): Normalization(
          (norm): LayerNorm((128,), eps=1e-05, elementwise_affine=True)
        )
        (pool): DownAvgPool()
        (drop): Dropout1d(p=0.25, inplace=False)
        (output_linear): Sequential(
          (0): Conv1d(128, 256, kernel_size=(1,), stride=(1,))
          (1): GLU(dim=-2)
        )
        (activation): GELU(approximate=none)
      )
      (10): SequenceResidualBlock(
        (layer): S4Block(
          (layer): FFTConv(
            (activation): GELU(approximate=none)
            (kernel): SSMKernelDPLR()
            (drop): Dropout(p=0.25, inplace=False)
            (drop_kernel): Identity()
          )
          (mult_activation): Identity()
          (drop): Dropout(p=0.25, inplace=False)
          (output_linear): Sequential(
            (0): Linear(in_features=128, out_features=256, bias=True)
            (1): GLU(dim=-1)
          )
        )
        (residual): Residual()
        (norm): Normalization(
          (norm): LayerNorm((128,), eps=1e-05, elementwise_affine=True)
        )
        (pool): DownAvgPool()
        (drop): Dropout1d(p=0.25, inplace=False)
        (output_linear): Sequential(
          (0): Conv1d(128, 256, kernel_size=(1,), stride=(1,))
          (1): GLU(dim=-2)
        )
        (activation): GELU(approximate=none)
      )
      (11): SequenceResidualBlock(
        (layer): FFN(
          (ff): Sequential(
            (0): Sequential(
              (0): Linear(in_features=128, out_features=512, bias=True)
              (1): GELU(approximate=none)
            )
            (1): Dropout(p=0.25, inplace=False)
            (2): Linear(in_features=512, out_features=128, bias=True)
          )
        )
        (residual): Residual()
        (norm): Normalization(
          (norm): LayerNorm((128,), eps=1e-05, elementwise_affine=True)
        )
        (pool): DownAvgPool()
        (drop): Dropout1d(p=0.25, inplace=False)
        (output_linear): Sequential(
          (0): Conv1d(128, 256, kernel_size=(1,), stride=(1,))
          (1): GLU(dim=-2)
        )
        (activation): GELU(approximate=none)
      )
      (12): SequenceResidualBlock(
        (layer): S4Block(
          (layer): FFTConv(
            (activation): GELU(approximate=none)
            (kernel): SSMKernelDPLR()
            (drop): Dropout(p=0.25, inplace=False)
            (drop_kernel): Identity()
          )
          (mult_activation): Identity()
          (drop): Dropout(p=0.25, inplace=False)
          (output_linear): Sequential(
            (0): Linear(in_features=128, out_features=256, bias=True)
            (1): GLU(dim=-1)
          )
        )
        (residual): Residual()
        (norm): Normalization(
          (norm): LayerNorm((128,), eps=1e-05, elementwise_affine=True)
        )
        (pool): DownAvgPool()
        (drop): Dropout1d(p=0.25, inplace=False)
        (output_linear): Sequential(
          (0): Conv1d(128, 256, kernel_size=(1,), stride=(1,))
          (1): GLU(dim=-2)
        )
        (activation): GELU(approximate=none)
      )
      (13): SequenceResidualBlock(
        (layer): S4Block(
          (layer): FFTConv(
            (activation): GELU(approximate=none)
            (kernel): SSMKernelDPLR()
            (drop): Dropout(p=0.25, inplace=False)
            (drop_kernel): Identity()
          )
          (mult_activation): Identity()
          (drop): Dropout(p=0.25, inplace=False)
          (output_linear): Sequential(
            (0): Linear(in_features=128, out_features=256, bias=True)
            (1): GLU(dim=-1)
          )
        )
        (residual): Residual()
        (norm): Normalization(
          (norm): LayerNorm((128,), eps=1e-05, elementwise_affine=True)
        )
        (pool): DownAvgPool()
        (drop): Dropout1d(p=0.25, inplace=False)
        (output_linear): Sequential(
          (0): Conv1d(128, 256, kernel_size=(1,), stride=(1,))
          (1): GLU(dim=-2)
        )
        (activation): GELU(approximate=none)
      )
      (14): SequenceResidualBlock(
        (layer): FFN(
          (ff): Sequential(
            (0): Sequential(
              (0): Linear(in_features=128, out_features=512, bias=True)
              (1): GELU(approximate=none)
            )
            (1): Dropout(p=0.25, inplace=False)
            (2): Linear(in_features=512, out_features=128, bias=True)
          )
        )
        (residual): Residual()
        (norm): Normalization(
          (norm): LayerNorm((128,), eps=1e-05, elementwise_affine=True)
        )
        (pool): DownAvgPool()
        (drop): Dropout1d(p=0.25, inplace=False)
        (output_linear): Sequential(
          (0): Conv1d(128, 256, kernel_size=(1,), stride=(1,))
          (1): GLU(dim=-2)
        )
        (activation): GELU(approximate=none)
      )
      (15): SequenceResidualBlock(
        (layer): S4Block(
          (layer): FFTConv(
            (activation): GELU(approximate=none)
            (kernel): SSMKernelDPLR()
            (drop): Dropout(p=0.25, inplace=False)
            (drop_kernel): Identity()
          )
          (mult_activation): Identity()
          (drop): Dropout(p=0.25, inplace=False)
          (output_linear): Sequential(
            (0): Linear(in_features=128, out_features=256, bias=True)
            (1): GLU(dim=-1)
          )
        )
        (residual): Residual()
        (norm): Normalization(
          (norm): LayerNorm((128,), eps=1e-05, elementwise_affine=True)
        )
        (pool): DownAvgPool()
        (drop): Dropout1d(p=0.25, inplace=False)
        (output_linear): Sequential(
          (0): Conv1d(128, 256, kernel_size=(1,), stride=(1,))
          (1): GLU(dim=-2)
        )
        (activation): GELU(approximate=none)
      )
      (16): SequenceResidualBlock(
        (layer): S4Block(
          (layer): FFTConv(
            (activation): GELU(approximate=none)
            (kernel): SSMKernelDPLR()
            (drop): Dropout(p=0.25, inplace=False)
            (drop_kernel): Identity()
          )
          (mult_activation): Identity()
          (drop): Dropout(p=0.25, inplace=False)
          (output_linear): Sequential(
            (0): Linear(in_features=128, out_features=256, bias=True)
            (1): GLU(dim=-1)
          )
        )
        (residual): Residual()
        (norm): Normalization(
          (norm): LayerNorm((128,), eps=1e-05, elementwise_affine=True)
        )
        (pool): DownAvgPool()
        (drop): Dropout1d(p=0.25, inplace=False)
        (output_linear): Sequential(
          (0): Conv1d(128, 256, kernel_size=(1,), stride=(1,))
          (1): GLU(dim=-2)
        )
        (activation): GELU(approximate=none)
      )
      (17): SequenceResidualBlock(
        (layer): FFN(
          (ff): Sequential(
            (0): Sequential(
              (0): Linear(in_features=128, out_features=512, bias=True)
              (1): GELU(approximate=none)
            )
            (1): Dropout(p=0.25, inplace=False)
            (2): Linear(in_features=512, out_features=128, bias=True)
          )
        )
        (residual): Residual()
        (norm): Normalization(
          (norm): LayerNorm((128,), eps=1e-05, elementwise_affine=True)
        )
        (pool): DownAvgPool()
        (drop): Dropout1d(p=0.25, inplace=False)
        (output_linear): Sequential(
          (0): Conv1d(128, 256, kernel_size=(1,), stride=(1,))
          (1): GLU(dim=-2)
        )
        (activation): GELU(approximate=none)
      )
    )
    (norm): Normalization(
      (norm): LayerNorm((128,), eps=1e-05, elementwise_affine=True)
    )
  )
  (encoder): AdaptiveEmbedding(
    (0): AdaptiveEmbedding(
      (drop): Dropout(p=0.25, inplace=False)
      (emb_layers): ModuleList(
        (0): Embedding(33278, 128)
      )
      (emb_projs): ParameterList()
    )
  )
  (decoder): SequenceDecoder(
    (0): SequenceDecoder(
      (output_transform): Identity()
    )
  )
  (loss): ProjectedAdaptiveLogSoftmax(
    (out_layers_biases): ParameterList(  (0): Parameter containing: [torch.FloatTensor of size 33278])
    (shared_out_projs): ParameterList()
    (out_projs): OptionalParameterList()
    (drop): Dropout(p=0.25, inplace=False)
…
