…
[2023-07-13 11:53:14,681][src.models.sequence.kernels.ssm][INFO] - Constructing S4 (H, N, L) = (1024, 32, 8192)
SequenceLightningModule(
  (model): SequenceModel(
    (drop): Identity()
    (layers): ModuleList(
      (0): SequenceResidualBlock(
        (layer): S4Block(
          (layer): FFTConv(
            (activation): GELU(approximate=none)
            (kernel): SSMKernelDPLR()
            (drop): Dropout(p=0.25, inplace=False)
            (drop_kernel): Identity()
          )
          (mult_activation): Identity()
          (drop): Dropout(p=0.25, inplace=False)
          (output_linear): Sequential(
            (0): Linear(in_features=1024, out_features=2048, bias=True)
            (1): GLU(dim=-1)
          )
        )
        (residual): Residual()
        (norm): Normalization(
          (norm): LayerNorm((1024,), eps=1e-05, elementwise_affine=True)
        )
        (pool): DownAvgPool()
        (drop): Dropout1d(p=0.25, inplace=False)
        (output_linear): Sequential(
          (0): Conv1d(1024, 2048, kernel_size=(1,), stride=(1,))
          (1): GLU(dim=-2)
        )
        (activation): GELU(approximate=none)
      )
      (1): SequenceResidualBlock(
        (layer): S4Block(
          (layer): FFTConv(
            (activation): GELU(approximate=none)
            (kernel): SSMKernelDPLR()
            (drop): Dropout(p=0.25, inplace=False)
            (drop_kernel): Identity()
          )
          (mult_activation): Identity()
          (drop): Dropout(p=0.25, inplace=False)
          (output_linear): Sequential(
            (0): Linear(in_features=1024, out_features=2048, bias=True)
            (1): GLU(dim=-1)
          )
        )
        (residual): Residual()
        (norm): Normalization(
          (norm): LayerNorm((1024,), eps=1e-05, elementwise_affine=True)
        )
        (pool): DownAvgPool()
        (drop): Dropout1d(p=0.25, inplace=False)
        (output_linear): Sequential(
          (0): Conv1d(1024, 2048, kernel_size=(1,), stride=(1,))
          (1): GLU(dim=-2)
        )
        (activation): GELU(approximate=none)
      )
      (2): SequenceResidualBlock(
        (layer): FFN(
          (ff): Sequential(
            (0): Sequential(
              (0): Linear(in_features=1024, out_features=4096, bias=True)
              (1): GELU(approximate=none)
            )
            (1): Dropout(p=0.25, inplace=False)
            (2): Linear(in_features=4096, out_features=1024, bias=True)
          )
        )
        (residual): Residual()
        (norm): Normalization(
          (norm): LayerNorm((1024,), eps=1e-05, elementwise_affine=True)
        )
        (pool): DownAvgPool()
        (drop): Dropout1d(p=0.25, inplace=False)
        (output_linear): Sequential(
          (0): Conv1d(1024, 2048, kernel_size=(1,), stride=(1,))
          (1): GLU(dim=-2)
        )
        (activation): GELU(approximate=none)
      )
    )
    (norm): Normalization(
      (norm): LayerNorm((1024,), eps=1e-05, elementwise_affine=True)
    )
  )
  (encoder): AdaptiveEmbedding(
    (0): AdaptiveEmbedding(
      (drop): Dropout(p=0.25, inplace=False)
      (emb_layers): ModuleList(
        (0): Embedding(19997, 1024)
        (1): Embedding(20000, 256)
        (2): Embedding(160000, 64)
        (3): Embedding(67738, 16)
      )
      (emb_projs): ParameterList(
          (0): Parameter containing: [torch.FloatTensor of size 1024x1024]
          (1): Parameter containing: [torch.FloatTensor of size 1024x256]
          (2): Parameter containing: [torch.FloatTensor of size 1024x64]
          (3): Parameter containing: [torch.FloatTensor of size 1024x16]
      )
    )
  )
  (decoder): SequenceDecoder(
    (0): SequenceDecoder(
…
