…
`Trainer(limit_train_batches=1.0)` was configured so 100% of the batches per epoch will be used..
`Trainer(limit_val_batches=1.0)` was configured so 100% of the batches will be used..
LOCAL_RANK: 0 - CUDA_VISIBLE_DEVICES: [0]
NOTE: no dropout inside recurrent cell
NOTE: no dropout inside recurrent cell
NOTE: no dropout inside recurrent cell
NOTE: no dropout inside recurrent cell
NOTE: no dropout inside recurrent cell
NOTE: no dropout inside recurrent cell
SequenceModel(
  (drop): Identity()
  (layers): ModuleList(
    (0): SequenceResidualBlock(
      (layer): RNN(
        (cell): RNNCell(
          (W_hx): Linear(in_features=384, out_features=384, bias=False)
          (activate): Tanh()
          (W_hh): Linear(in_features=384, out_features=384, bias=False)
        )
      )
      (residual): Residual()
      (norm): Normalization(
        (norm): BatchNorm1d(384, eps=1e-05, momentum=0.1, affine=True, track_running_stats=True)
      )
      (drop): Dropout(p=0.1, inplace=False)
      (output_linear): Sequential(
        (0): Conv1d(384, 768, kernel_size=(1,), stride=(1,))
        (1): GLU(dim=-2)
      )
      (drop_path): Identity()
    )
    (1): SequenceResidualBlock(
      (layer): RNN(
        (cell): RNNCell(
          (W_hx): Linear(in_features=384, out_features=384, bias=False)
          (activate): Tanh()
          (W_hh): Linear(in_features=384, out_features=384, bias=False)
        )
      )
      (residual): Residual()
      (norm): Normalization(
        (norm): BatchNorm1d(384, eps=1e-05, momentum=0.1, affine=True, track_running_stats=True)
      )
      (drop): Dropout(p=0.1, inplace=False)
      (output_linear): Sequential(
        (0): Conv1d(384, 768, kernel_size=(1,), stride=(1,))
        (1): GLU(dim=-2)
      )
      (drop_path): Identity()
    )
    (2): SequenceResidualBlock(
      (layer): RNN(
        (cell): RNNCell(
          (W_hx): Linear(in_features=384, out_features=384, bias=False)
          (activate): Tanh()
          (W_hh): Linear(in_features=384, out_features=384, bias=False)
        )
      )
      (residual): Residual()
      (norm): Normalization(
        (norm): BatchNorm1d(384, eps=1e-05, momentum=0.1, affine=True, track_running_stats=True)
      )
      (drop): Dropout(p=0.1, inplace=False)
      (output_linear): Sequential(
        (0): Conv1d(384, 768, kernel_size=(1,), stride=(1,))
        (1): GLU(dim=-2)
      )
      (drop_path): Identity()
    )
    (3): SequenceResidualBlock(
      (layer): RNN(
        (cell): RNNCell(
          (W_hx): Linear(in_features=384, out_features=384, bias=False)
          (activate): Tanh()
          (W_hh): Linear(in_features=384, out_features=384, bias=False)
        )
      )
      (residual): Residual()
      (norm): Normalization(
        (norm): BatchNorm1d(384, eps=1e-05, momentum=0.1, affine=True, track_running_stats=True)
      )
      (drop): Dropout(p=0.1, inplace=False)
      (output_linear): Sequential(
        (0): Conv1d(384, 768, kernel_size=(1,), stride=(1,))
        (1): GLU(dim=-2)
      )
      (drop_path): Identity()
    )
    (4): SequenceResidualBlock(
      (layer): RNN(
        (cell): RNNCell(
          (W_hx): Linear(in_features=384, out_features=384, bias=False)
          (activate): Tanh()
          (W_hh): Linear(in_features=384, out_features=384, bias=False)
        )
      )
      (residual): Residual()
      (norm): Normalization(
        (norm): BatchNorm1d(384, eps=1e-05, momentum=0.1, affine=True, track_running_stats=True)
      )
      (drop): Dropout(p=0.1, inplace=False)
      (output_linear): Sequential(
        (0): Conv1d(384, 768, kernel_size=(1,), stride=(1,))
        (1): GLU(dim=-2)
      )
      (drop_path): Identity()
    )
    (5): SequenceResidualBlock(
      (layer): RNN(
        (cell): RNNCell(
          (W_hx): Linear(in_features=384, out_features=384, bias=False)
          (activate): Tanh()
          (W_hh): Linear(in_features=384, out_features=384, bias=False)
        )
      )
      (residual): Residual()
      (norm): Normalization(
        (norm): BatchNorm1d(384, eps=1e-05, momentum=0.1, affine=True, track_running_stats=True)
      )
      (drop): Dropout(p=0.1, inplace=False)
      (output_linear): Sequential(
        (0): Conv1d(384, 768, kernel_size=(1,), stride=(1,))
        (1): GLU(dim=-2)
      )
      (drop_path): Identity()
    )
  )
  (norm): Identity()
)
NOTE: no dropout inside recurrent cell
NOTE: no dropout inside recurrent cell
NOTE: no dropout inside recurrent cell
NOTE: no dropout inside recurrent cell
NOTE: no dropout inside recurrent cell
NOTE: no dropout inside recurrent cell
Hyperparameter groups [{'lr': 0.0003, 'weight_decay': 0.0}]
…
