…
Namespace(batch_size=50, cell='rnn', d_hidden=196, d_model=128, dataset='cifar10', dropout=0.1, epochs=200, grayscale=False, lr=0.01, lr_factor=0.25, n_layers=2, norm='BN', num_workers=0, prenorm=True, resume=False, weight_decay=0.05)
{'weight_decay': 0.0, 'lr': 0.0025}
{'weight_decay': 0.0, 'lr': 0.0025}
Files already downloaded and verified
Files already downloaded and verified
Files already downloaded and verified
torch.Size([50, 1024, 3]) tensor([1, 7, 9, 6, 3, 8, 9, 1, 5, 7, 4, 7, 6, 1, 9, 2, 8, 8, 8, 9, 9, 3, 5, 7,
        7, 9, 9, 3, 9, 3, 6, 4, 2, 7, 1, 5, 0, 8, 5, 3, 5, 9, 3, 5, 3, 0, 3, 2,
        4, 5])
RNNbased(
  (encoder): Linear(in_features=3, out_features=128, bias=True)
  (layers): ModuleList(
    (0): RNN(
      (cell): RNNCell(
        (W_hx): Linear(in_features=128, out_features=196, bias=False)
        (activate): Tanh()
        (W_hh): Linear(in_features=196, out_features=196, bias=False)
      )
    )
    (1): RNN(
      (cell): RNNCell(
        (W_hx): Linear(in_features=128, out_features=196, bias=False)
        (activate): Tanh()
        (W_hh): Linear(in_features=196, out_features=196, bias=False)
      )
    )
  )
  (norms): ModuleList(
    (0): BatchNorm1d(128, eps=1e-05, momentum=0.1, affine=True, track_running_stats=True)
    (1): BatchNorm1d(128, eps=1e-05, momentum=0.1, affine=True, track_running_stats=True)
  )
  (dropouts): ModuleList(
    (0): Dropout1d(p=0.1, inplace=False)
    (1): Dropout1d(p=0.1, inplace=False)
  )
  (FFNs): ModuleList(
    (0): Sequential(
      (0): Linear(in_features=196, out_features=256, bias=True)
      (1): GLU(dim=-1)
    )
    (1): Sequential(
      (0): Linear(in_features=196, out_features=256, bias=True)
      (1): GLU(dim=-1)
    )
  )
  (decoder): Linear(in_features=128, out_features=10, bias=True)
)
Optimizer group 0 | 12 tensors | lr 0.0004761904761904762 | weight_decay 0.05
Optimizer group 1 | 4 tensors | lr 0.00011904761904761905 | weight_decay 0.0
