…

Batch Idx: (750/900) | Loss: 1.949 | Acc: 27.595% (10362/37550): : 751it [03:13,  3.55it/s]






Batch Idx: (797/900) | Loss: 1.949 | Acc: 27.584% (11006/39900): : 798it [03:25,  3.88it/s]







Batch Idx: (849/900) | Loss: 1.949 | Acc: 27.527% (11699/42500): : 850it [03:40,  3.79it/s]






Epoch: 11 | Val acc: 27.820:   4%|▎         | 7/196 [31:59<14:23:57, 274.27s/it]  3.63it/s]
<class '__main__.MyClass'>
Hello, my name is John and I'm 25 years old.
Hello, my name is John and I'm 25 years old.
Hello, my name is Alice.
Hello, my name is Alice.
Hello, my name is Alice.
RNNbased(
  (encoder): Linear(in_features=3, out_features=5, bias=True)
  (layers): ModuleList(
    (0): RNN(
      (cell): RNNCell(
        (W_hx): Linear(in_features=5, out_features=5, bias=False)
        (activate): Tanh()
        (W_hh): Linear(in_features=5, out_features=5, bias=False)
      )
    )
    (1): RNN(
      (cell): RNNCell(
        (W_hx): Linear(in_features=5, out_features=5, bias=False)
        (activate): Tanh()
        (W_hh): Linear(in_features=5, out_features=5, bias=False)
      )
    )
  )
  (norms): ModuleList(
    (0): BatchNorm1d(5, eps=1e-05, momentum=0.1, affine=True, track_running_stats=True)
    (1): BatchNorm1d(5, eps=1e-05, momentum=0.1, affine=True, track_running_stats=True)
  )
  (dropouts): ModuleList(
    (0): Dropout1d(p=0.1, inplace=False)
    (1): Dropout1d(p=0.1, inplace=False)
  )
  (FFNs): ModuleList(
    (0): Sequential(
      (0): Linear(in_features=5, out_features=10, bias=True)
      (1): GLU(dim=-1)
    )
    (1): Sequential(
      (0): Linear(in_features=5, out_features=10, bias=True)
      (1): GLU(dim=-1)
    )
  )
  (decoder): Linear(in_features=5, out_features=10, bias=True)
)
wandb: Network error (ConnectionError), entering retry loop.
[34m[1mwandb[39m[22m: [33mWARNING[39m Calling wandb.login() after wandb.init() has no effect.
Device available now: cpu
